esn-virtual-sensor/sensor_model.tflite (tflite, 13392 bytes, 5 tensors)

sequential/dense_10/MatMul i1 [4, 16] scale=0.0063333185 zero_point=0
0	0x00	0.0
1	0x8d	-0.7283316
2	0x93	-0.6903317
3	0xc5	-0.37366578
4	0x57	0.5509987
5	0x44	0.43066567
6	0x00	0.0
7	0x9b	-0.6396652
8	0x9e	-0.6206652
9	0xbb	-0.436999
10	0x00	0.0
11	0x41	0.4116657
12	0x00	0.0
13	0x2b	0.2723327
14	0xe0	-0.2026662
15	0x91	-0.70299834
16	0xb1	-0.5003322
17	0x35	0.33566588
18	0x2d	0.28499934
19	0xb8	-0.45599893
20	0x00	0.0
21	0x81	-0.8043315
22	0x00	0.0
23	0x00	0.0
24	0xdd	-0.22166614
25	0xb5	-0.4749989
26	0xbe	-0.41799903
27	0xe1	-0.19633287
28	0x64	0.63333184
29	0x00	0.0
30	0x25	0.23433279
31	0x31	0.3103326
32	0x00	0.0
33	0xc6	-0.3673325
34	0x00	0.0
35	0x1f	0.19633287
36	0x29	0.25966606
37	0x28	0.25333273
38	0xbc	-0.43066567
39	0x7b	0.7789982
40	0x68	0.6586651
41	0xc4	-0.3799991
42	0x00	0.0
43	0x23	0.22166614
44	0xbc	-0.43066567
45	0x33	0.32299924
46	0x9b	-0.6396652
47	0x36	0.3419992
48	0x00	0.0
49	0x55	0.5383321
50	0x50	0.50666547
51	0x00	0.0
52	0x00	0.0
53	0x00	0.0
54	0x81	-0.8043315
55	0xb9	-0.4496656
56	0x00	0.0
57	0x00	0.0
58	0x59	0.56366533
59	0xa8	-0.55733204
60	0x00	0.0
61	0xbc	-0.43066567
62	0xc9	-0.34833252
63	0xc7	-0.36099917

sequential/dense_9/MatMul i1 [16, 16] scale=0.0048560235 zero_point=0
0	0xc7	-0.27679333
1	0x00	0.0
2	0xbc	-0.33020958
3	0x00	0.0
4	0x00	0.0
5	0x00	0.0
6	0x4d	0.3739138
7	0x00	0.0
8	0x3a	0.28164935
9	0x32	0.24280117
10	0x21	0.16024877
11	0x00	0.0
12	0x00	0.0
13	0x00	0.0
14	0x00	0.0
15	0x00	0.0
16	0x23	0.16996083
17	0xdd	-0.16996083
18	0xb2	-0.37876984
19	0x00	0.0
20	0x42	0.32049754
21	0x52	0.39819393
22	0x6e	0.5341626
23	0x53	0.40304995
24	0x1c	0.13596866
25	0xcf	-0.23794515
26	0xb5	-0.36420175
27	0x00	0.0
28	0xdb	-0.17967287
29	0x70	0.5438746
30	0xbe	-0.32049754
31	0x27	0.18938492
32	0x35	0.25736925
33	0x52	0.39819393
34	0x00	0.0
35	0x5b	0.44189814
36	0x00	0.0
37	0x65	0.49045837
38	0x58	0.42733008
39	0x00	0.0
40	0x00	0.0
41	0xe1	-0.15053673
42	0xaf	-0.3933379
43	0x38	0.2719373
44	0xe3	-0.14082468
45	0xd1	-0.2282331
46	0x00	0.0
47	0xdc	-0.17481685
48	0xb5	-0.36420175
49	0x00	0.0
50	0x00	0.0
51	0x00	0.0
52	0xc3	-0.29621744
53	0xc9	-0.2670813
54	0xb0	-0.3884819
55	0xcc	-0.25251323
56	0x19	0.12140059
57	0x00	0.0
58	0xcb	-0.25736925
59	0xe8	-0.11654456
60	0x22	0.16510479
61	0xd5	-0.208809
62	0x00	0.0
63	0x00	0.0
64	0x00	0.0
65	0x00	0.0
66	0x56	0.417618
67	0x3a	0.28164935
68	0x1f	0.15053673
69	0xae	-0.39819393
70	0x00	0.0
71	0x1c	0.13596866
72	0xa8	-0.42733008
73	0x5b	0.44189814
74	0x45	0.33506563
75	0x00	0.0
76	0x00	0.0
77	0x00	0.0
78	0x57	0.42247406
79	0x00	0.0
80	0xa2	-0.4564662
81	0x9d	-0.48074633
82	0x53	0.40304995
83	0x58	0.42733008
84	0x00	0.0
85	0x00	0.0
86	0x9a	-0.4953144
87	0x1e	0.14568071
88	0xc6	-0.28164935
89	0x19	0.12140059
90	0x24	0.17481685
91	0xe8	-0.11654456
92	0x00	0.0
93	0x86	-0.5924349
94	0x44	0.33020958
95	0x43	0.32535356
96	0x6b	0.5195945
97	0x6f	0.53901863
98	0x45	0.33506563
99	0x00	0.0
100	0x2f	0.2282331
101	0xad	-0.40304995
102	0x48	0.3496337
103	0xa3	-0.45161018
104	0x27	0.18938492
105	0xc5	-0.28650537
106	0xd9	-0.18938492
107	0x42	0.32049754
108	0xa1	-0.46132222
109	0x20	0.15539275
110	0x00	0.0
111	0xde	-0.16510479
112	0x91	-0.53901863
113	0xa0	-0.46617824
114	0x2e	0.22337708
115	0x3a	0.28164935
116	0xd8	-0.19424094
117	0x28	0.19424094
118	0x24	0.17481685
119	0xd3	-0.21852106
120	0x39	0.27679333
121	0x18	0.11654456
122	0xd5	-0.208809
123	0x00	0.0
124	0xd0	-0.23308912
125	0xd2	-0.22337708
126	0x9e	-0.4758903
127	0x27	0.18938492
128	0x1d	0.14082468
129	0xa7	-0.4321861
130	0x00	0.0
131	0x00	0.0
132	0xb2	-0.37876984
133	0x00	0.0
134	0xcc	-0.25251323
135	0x35	0.25736925
136	0x41	0.31564152
137	0xa4	-0.44675416
138	0xc8	-0.2719373
139	0x40	0.3107855
140	0xb2	-0.37876984
141	0x00	0.0
142	0xe8	-0.11654456
143	0x3f	0.30592948
144	0x00	0.0
145	0x00	0.0
146	0xd7	-0.19909696
147	0x00	0.0
148	0x58	0.42733008
149	0x19	0.12140059
150	0xce	-0.24280117
151	0x00	0.0
152	0x5a	0.43704212
153	0x00	0.0
154	0x1f	0.15053673
155	0x2c	0.21366504
156	0x5a	0.43704212
157	0x00	0.0
158	0x00	0.0
159	0x00	0.0
160	0x16	0.10683252
161	0x1c	0.13596866
162	0xdb	-0.17967287
163	0xd0	-0.23308912
164	0x3d	0.29621744
165	0x34	0.25251323
166	0xd5	-0.208809
167	0x49	0.3544897
168	0x00	0.0
169	0xc0	-0.3107855
170	0x4d	0.3739138
171	0xc1	-0.30592948
172	0x32	0.24280117
173	0x9f	-0.4710343
174	0xd6	-0.20395298
175	0x45	0.33506563
176	0x00	0.0
177	0xda	-0.18452889
178	0xe3	-0.14082468
179	0x3b	0.28650537
180	0x4f	0.38362586
181	0x00	0.0
182	0x00	0.0
183	0xe2	-0.14568071
184	0x00	0.0
185	0x35	0.25736925
186	0x4d	0.3739138
187	0x48	0.3496337
188	0xd8	-0.19424094
189	0x00	0.0
190	0x00	0.0
191	0xe5	-0.13111264
192	0x4f	0.38362586
193	0x67	0.5001704
194	0x00	0.0
195	0x00	0.0
196	0x2d	0.21852106
197	0x24	0.17481685
198	0x5a	0.43704212
199	0x00	0.0
200	0xde	-0.16510479
201	0x98	-0.50502646
202	0xc7	-0.27679333
203	0xe4	-0.13596866
204	0x17	0.11168854
205	0x77	0.5778668
206	0x93	-0.52930653
207	0x00	0.0
208	0xe5	-0.13111264
209	0x1d	0.14082468
210	0x3e	0.30107346
211	0xa5	-0.44189814
212	0x48	0.3496337
213	0x00	0.0
214	0x28	0.19424094
215	0xd6	-0.20395298
216	0x88	-0.58272284
217	0xdf	-0.16024877
218	0xb7	-0.3544897
219	0x00	0.0
220	0x3b	0.28650537
221	0x00	0.0
222	0x67	0.5001704
223	0x00	0.0
224	0x00	0.0
225	0x74	0.5632987
226	0x00	0.0
227	0xca	-0.26222527
228	0x00	0.0
229	0xcc	-0.25251323
230	0x4e	0.37876984
231	0xe0	-0.15539275
232	0x00	0.0
233	0x8f	-0.5487307
234	0x81	-0.61671495
235	0xd4	-0.21366504
236	0x39	0.27679333
237	0x5c	0.44675416
238	0x21	0.16024877
239	0x00	0.0
240	0x00	0.0
241	0xe4	-0.13596866
242	0x00	0.0
243	0x51	0.3933379
244	0xae	-0.39819393
245	0x44	0.33020958
246	0x3a	0.28164935
247	0xb0	-0.3884819
248	0x48	0.3496337
249	0x00	0.0
250	0x8b	-0.56815475
251	0x58	0.42733008
252	0xac	-0.40790597
253	0xe4	-0.13596866
254	0x5d	0.45161018
255	0x4d	0.3739138

sequential/dense_8/MatMul i1 [16, 400] scale=0.0031305884 zero_point=0
0	0xe8	-0.07513412
1	0x1e	0.09391765
2	0x00	0.0
3	0x28	0.12522353
4	0xf3	-0.04069765
5	0x00	0.0
6	0x24	0.112701185
7	0x29	0.12835413
8	0xf4	-0.03756706
9	0x13	0.05948118
10	0xbb	-0.2160106
11	0x2a	0.13148472
12	0x00	0.0
13	0x27	0.12209295
14	0x18	0.07513412
15	0xe2	-0.09391765
16	0x00	0.0
17	0x23	0.10957059
18	0x27	0.12209295
19	0x12	0.056350593
20	0xf1	-0.046958826
21	0x17	0.072003536
22	0x13	0.05948118
23	0x0e	0.043828238
24	0xe6	-0.0813953
25	0x13	0.05948118
26	0xe5	-0.08452589
27	0x22	0.10644001
28	0x00	0.0
29	0x00	0.0
30	0x2b	0.1346153
31	0xe3	-0.09078707
32	0x00	0.0
33	0x00	0.0
34	0x30	0.15026824
35	0x36	0.16905178
36	0x13	0.05948118
37	0x2a	0.13148472
38	0x00	0.0
39	0x0c	0.03756706
40	0x00	0.0
41	0xf6	-0.031305883
42	0xeb	-0.06574236
43	0x2f	0.14713766
44	0x17	0.072003536
45	0xe9	-0.072003536
46	0x00	0.0
47	0x00	0.0
48	0xf4	-0.03756706
49	0x00	0.0
50	0x00	0.0
51	0x00	0.0
52	0xd8	-0.12522353
53	0x30	0.15026824
54	0x00	0.0
55	0x1b	0.08452589
56	0xda	-0.11896236
57	0xe6	-0.0813953
58	0x00	0.0
59	0x29	0.12835413
60	0xe9	-0.072003536
61	0xe1	-0.097048245
62	0x16	0.06887294
63	0x00	0.0
64	0x00	0.0
65	0xd1	-0.14713766
66	0x2f	0.14713766
67	0x00	0.0
68	0x0f	0.046958826
69	0xf3	-0.04069765
70	0xbb	-0.2160106
71	0x00	0.0
72	0xe8	-0.07513412
73	0x25	0.11583177
74	0x00	0.0
75	0x10	0.050089415
76	0xe9	-0.072003536
77	0x00	0.0
78	0x10	0.050089415
79	0x00	0.0
80	0x00	0.0
81	0x00	0.0
82	0x2e	0.14400707
83	0x37	0.17218237
84	0x00	0.0
85	0x20	0.10017883
86	0x00	0.0
87	0x2f	0.14713766
88	0x00	0.0
89	0xe2	-0.09391765
90	0xca	-0.16905178
91	0x1c	0.087656476
92	0xcc	-0.1627906
93	0x20	0.10017883
94	0x10	0.050089415
95	0x00	0.0
96	0xda	-0.11896236
97	0xc3	-0.19096589
98	0xe7	-0.07826471
99	0x0f	0.046958826
100	0x00	0.0
101	0xeb	-0.06574236
102	0xbf	-0.20348825
103	0x1d	0.09078707
104	0x17	0.072003536
105	0xe0	-0.10017883
106	0xb9	-0.22227179
107	0x12	0.056350593
108	0x00	0.0
109	0x1e	0.09391765
110	0xed	-0.05948118
111	0xeb	-0.06574236
112	0xd5	-0.1346153
113	0xb9	-0.22227179
114	0x1b	0.08452589
115	0x00	0.0
116	0x00	0.0
117	0x16	0.06887294
118	0xdc	-0.112701185
119	0x22	0.10644001
120	0xf2	-0.043828238
121	0x25	0.11583177
122	0xf5	-0.03443647
123	0xeb	-0.06574236
124	0xf1	-0.046958826
125	0x11	0.053220004
126	0xef	-0.053220004
127	0xe2	-0.09391765
128	0xe5	-0.08452589
129	0xc8	-0.17531295
130	0x0f	0.046958826
131	0x1a	0.0813953
132	0xf4	-0.03756706
133	0x0e	0.043828238
134	0xd3	-0.14087649
135	0xe4	-0.087656476
136	0x00	0.0
137	0x00	0.0
138	0xe9	-0.072003536
139	0x00	0.0
140	0xb7	-0.22853296
141	0xd2	-0.14400707
142	0xf1	-0.046958826
143	0xea	-0.06887294
144	0xdb	-0.11583177
145	0xd0	-0.15026824
146	0x0b	0.03443647
147	0x12	0.056350593
148	0xd8	-0.12522353
149	0x14	0.062611766
150	0xee	-0.056350593
151	0xdf	-0.103309415
152	0x41	0.20348825
153	0x4c	0.23792472
154	0xc1	-0.19722708
155	0x00	0.0
156	0xc9	-0.17218237
157	0x0e	0.043828238
158	0x00	0.0
159	0x00	0.0
160	0xdf	-0.103309415
161	0xd3	-0.14087649
162	0xc1	-0.19722708
163	0xf2	-0.043828238
164	0xf4	-0.03756706
165	0xeb	-0.06574236
166	0x00	0.0
167	0xd7	-0.12835413
168	0x3e	0.19409649
169	0x49	0.22853296
170	0xed	-0.05948118
171	0xd9	-0.12209295
172	0xdf	-0.103309415
173	0xe3	-0.09078707
174	0x00	0.0
175	0x00	0.0
176	0x0e	0.043828238
177	0xea	-0.06887294
178	0xe3	-0.09078707
179	0xe9	-0.072003536
180	0xde	-0.10644001
181	0xc7	-0.17844354
182	0x22	0.10644001
183	0xdb	-0.11583177
184	0x1e	0.09391765
185	0x39	0.17844354
186	0xf5	-0.03443647
187	0xc9	-0.17218237
188	0x00	0.0
189	0xd8	-0.12522353
190	0xd8	-0.12522353
191	0x00	0.0
192	0x1e	0.09391765
193	0xf2	-0.043828238
194	0xbe	-0.20661883
195	0x00	0.0
196	0x13	0.05948118
197	0xf4	-0.03756706
198	0xe0	-0.10017883
199	0xac	-0.26296943
200	0x3e	0.19409649
201	0x32	0.15652943
202	0x2e	0.14400707
203	0xe2	-0.09391765
204	0x00	0.0
205	0x00	0.0
206	0x16	0.06887294
207	0x21	0.103309415
208	0x1b	0.08452589
209	0x11	0.053220004
210	0xcf	-0.15339883
211	0xf6	-0.031305883
212	0xdb	-0.11583177
213	0xc0	-0.20035766
214	0x00	0.0
215	0xdc	-0.112701185
216	0x29	0.12835413
217	0x1f	0.097048245
218	0x41	0.20348825
219	0x00	0.0
220	0x00	0.0
221	0x16	0.06887294
222	0xd6	-0.13148472
223	0xe6	-0.0813953
224	0xd9	-0.12209295
225	0x00	0.0
226	0xea	-0.06887294
227	0xc2	-0.19409649
228	0x0c	0.03756706
229	0xd6	-0.13148472
230	0x24	0.112701185
231	0xb9	-0.22227179
232	0x16	0.06887294
233	0x10	0.050089415
234	0x39	0.17844354
235	0xee	-0.056350593
236	0x00	0.0
237	0x00	0.0
238	0xd4	-0.13774589
239	0x1d	0.09078707
240	0x00	0.0
241	0xe3	-0.09078707
242	0x00	0.0
243	0x00	0.0
244	0x24	0.112701185
245	0xe2	-0.09391765
246	0x12	0.056350593
247	0xab	-0.26610002
248	0x28	0.12522353
249	0x2c	0.13774589
250	0x31	0.15339883
251	0xed	-0.05948118
252	0x1b	0.08452589
253	0x14	0.062611766
254	0xdb	-0.11583177
255	0xe6	-0.0813953

sequential/separable_conv1d_4/separable_conv2d i1 [16, 1, 1, 6]
0	0x4a	74
1	0x98	-104
2	0x88	-120
3	0x7f	127
4	0x00	0
5	0x54	84
6	0x81	-127
7	0x3c	60
8	0x00	0
9	0x00	0
10	0x00	0
11	0x29	41
12	0x74	116
13	0x00	0
14	0x45	69
15	0x7f	127
16	0x38	56
17	0x2b	43
18	0xe4	-28
19	0x81	-127
20	0x25	37
21	0x63	99
22	0x00	0
23	0xda	-38
24	0x6d	109
25	0x97	-105
26	0x81	-127
27	0x34	52
28	0xb4	-76
29	0xc0	-64
30	0x00	0
31	0x00	0
32	0x7c	124
33	0x8f	-113
34	0x4e	78
35	0x7f	127
36	0x85	-123
37	0x00	0
38	0x00	0
39	0x00	0
40	0x7f	127
41	0x2e	46
42	0x81	-127
43	0xbd	-67
44	0x65	101
45	0x42	66
46	0x00	0
47	0xa3	-93
48	0xdc	-36
49	0x81	-127
50	0x00	0
51	0xaf	-81
52	0x4b	75
53	0x32	50
54	0x68	104
55	0xd3	-45
56	0x00	0
57	0x00	0
58	0x81	-127
59	0x00	0
60	0x00	0
61	0x30	48
62	0x81	-127
63	0xb2	-78
64	0xc7	-57
65	0xdb	-37
66	0x69	105
67	0x00	0
68	0x7f	127
69	0x00	0
70	0x4b	75
71	0x8a	-118
72	0x6c	108
73	0x48	72
74	0x00	0
75	0xdc	-36
76	0x00	0
77	0x7f	127
78	0xef	-17
79	0x3b	59
80	0x00	0
81	0x81	-127
82	0x13	19
83	0xe7	-25
84	0x6c	108
85	0x81	-127
86	0x36	54
87	0x00	0
88	0x00	0
89	0x62	98
90	0x24	36
91	0x00	0
92	0xe1	-31
93	0x81	-127
94	0x30	48
95	0x00	0

sequential/separable_conv1d_4/separable_conv2d/depthwise1 i1 [1, 1, 3, 6]
0	0xa3	-93
1	0x7f	127
2	0xee	-18
3	0xfc	-4
4	0x60	96
5	0x56	86
6	0xfe	-2
7	0x23	35
8	0x81	-127
9	0xb3	-77
10	0x7f	127
11	0x7f	127
12	0x81	-127
13	0x49	73
14	0xc4	-60
15	0x81	-127
16	0x50	80
17	0x48	72
